data/candidate_scorer_model.pth (torch, 15390 bytes, 5 tensors)

layer1.weight f4 [64, 15]
0	0x3e914a9e	0.2837724
1	0x3ea0c996	0.31403798
2	0x3e36a18d	0.17835064
3	0x3e659c96	0.22423014
4	0xbea08cd1	-0.31357434
5	0xbe868664	-0.26274407
6	0x3ddfc071	0.10925377
7	0x3e8111c7	0.25208876
8	0xbdd8dd69	-0.10589106
9	0x3e4da0f6	0.20080933
10	0x3e4a3ee0	0.19750547
11	0x3e56d228	0.20978606
12	0x3d41583d	0.04720329
13	0x3e233e0a	0.15941635
14	0xbdc9b984	-0.098498374
15	0x3c8402a0	0.016114533
16	0x3e48a011	0.1959231
17	0x3e8f05a5	0.27933994
18	0x3d3d1c42	0.046169527
19	0x3e56e4be	0.20985696
20	0x3e8322e0	0.25612545
21	0x3e965358	0.2936046
22	0xbe56de34	-0.20983201
23	0xbe91951f	-0.28434083
24	0x3e6fbd67	0.23412095
25	0xbe525a0f	-0.20542167
26	0xbe51c7e0	-0.20486403
27	0xbe113990	-0.14182115
28	0x3c832672	0.016009543
29	0x3e5f0e18	0.2178272
30	0x3eb7f135	0.35926214
31	0xbe6bc927	-0.23025952
32	0xbeb7d5f7	-0.3590543
33	0x3eb86590	0.36014986
34	0xbea85d79	-0.32883814
35	0xbe838fd4	-0.2569567
36	0xbe0608cc	-0.13089293
37	0xbe258561	-0.16164161
38	0x3e13b3f1	0.14424111
39	0x3ea7fd13	0.32810268
40	0x3e6a7dfa	0.22899619
41	0xbe703aa8	-0.23459876
42	0xbe2ade6f	-0.16686414
43	0x3e9035de	0.28166097
44	0x3eb8cfa5	0.3609592
45	0x3e305e2f	0.17223428
46	0x3e8b57d0	0.27215433
47	0x3d02dfda	0.031951763
48	0x3eb4a163	0.35279378
49	0xbe2bc4d6	-0.16774306
50	0xbe3acc2c	-0.18241948
51	0xbeb09b1e	-0.34493345
52	0xbeb7f39c	-0.35928047
53	0xbe98f081	-0.2987099
54	0x3e667ded	0.22508974
55	0x3e65507f	0.22393988
56	0x3e809054	0.25110114
57	0x3e909c0d	0.28244057
58	0xbe33b10b	-0.17548005
59	0xbe8942ac	-0.2680868
60	0x3d68bf87	0.05682328
61	0xbe4e2f09	-0.2013513
62	0xbe7bd2cf	-0.24592136
63	0xbeb1bd90	-0.34714937
64	0x3e486000	0.19567871
65	0xbe8d1ef1	-0.2756267
66	0x3e98c35a	0.2983654
67	0x3e2b1971	0.16708924
68	0xbec06844	-0.37579548
69	0xbe684ee0	-0.22686338
70	0x3eb4c936	0.35309762
71	0x3e89b31c	0.26894462
72	0xbe420d02	-0.18950275
73	0x3e6c7ecb	0.23095243
74	0xbea6bd51	-0.32566312
75	0x3e49f5a8	0.19722617
76	0xbe455ef0	-0.19274497
77	0xbe6e67a5	-0.23281725
78	0x3e64a4b4	0.22328454
79	0x3e70e5e4	0.23525196
80	0xbe6b4ed3	-0.22979288
81	0xbe83b018	-0.25720286
82	0x3e9a9a8a	0.3019603
83	0x3e432f4e	0.19061014
84	0xbe6c6821	-0.23086597
85	0x3e346f7a	0.1762065
86	0xbe44fc5b	-0.19236891
87	0xbe942844	-0.2893697
88	0xbc2cadb9	-0.010539466
89	0xbebd251c	-0.36942375
90	0xbe6ff8f8	-0.23434818
91	0x3e8a27d4	0.2698351
92	0x3e9129b6	0.28352135
93	0xbe7e2bc5	-0.24821384
94	0x3e731c30	0.23741221
95	0xbe685263	-0.22687678
96	0xbe1f3347	-0.15546905
97	0xbe10d389	-0.14143194
98	0x3ebc278c	0.36748922
99	0x3e8045d9	0.2505329
100	0xbebb17f1	-0.36541703
101	0x3daf0a30	0.08546865
102	0x3ca22565	0.019793222
103	0x3ebac787	0.36480352
104	0x3cd61ff6	0.026138287
105	0xbe8c0b63	-0.27352437
106	0x3eb41a3e	0.3517627
107	0x3e57edd1	0.21086814
108	0x3eb42e8c	0.35191762
109	0x3e8bfe63	0.2734252
110	0xbe7bb214	-0.2457965
111	0x3ec2dc5c	0.38058746
112	0xbeb3aeca	-0.3509429
113	0xbe03d9e6	-0.1287609
114	0xbea43648	-0.32072663
115	0x3df921aa	0.12164624
116	0x3eb3c749	0.3511298
117	0x3eafa88b	0.34308276
118	0xbe97b9b5	-0.2963387
119	0x3ea727b4	0.3264748
120	0x3e6003d7	0.21876465
121	0xbead8843	-0.33893022
122	0xbe2d887d	-0.16946597
123	0x3e0ee12a	0.13953081
124	0x3ea8a0de	0.32935232
125	0x3e8925d5	0.26786676
126	0x3eabe108	0.33570123
127	0x3eafe83a	0.34356862
128	0x3e992aed	0.29915562
129	0x3e326a2f	0.17423318
130	0xbeb76030	-0.35815573
131	0xbebfa1a2	-0.37428004
132	0x3e5b8c79	0.21440305
133	0xbe863782	-0.26214224
134	0x3ea48425	0.32132068
135	0xbe607106	-0.21918115
136	0x3e9368a6	0.28790778
137	0x3c935280	0.017983675
138	0x3e07422d	0.13208838
139	0x3ea631a9	0.32459763
140	0xbe9a8bbd	-0.30184737
141	0xbe8cbcb6	-0.27487725
142	0xbe4dcc4e	-0.20097467
143	0x3ea1a02f	0.31567523
144	0xbe7bba6a	-0.2458283
145	0xbeb323af	-0.34988162
146	0xbe5adcf3	-0.21373348
147	0xbe881fa3	-0.26586637
148	0xbebdccd6	-0.3707034
149	0x3e6539cf	0.22385333
150	0x3dc14123	0.09436252
151	0x3dcc265d	0.09968255
152	0x3e513fd8	0.2043451
153	0x3e9a2b64	0.3011123
154	0xbebbbcda	-0.3666752
155	0x3e7c02ac	0.24610394
156	0x3e9aaefe	0.30211633
157	0x3e8613d1	0.26186994
158	0xbeab3bff	-0.3344421
159	0xbeb33d93	-0.35007915
160	0xbe158629	-0.1460196
161	0xbdb76881	-0.089554794
162	0xbe956cd9	-0.29184607
163	0xbe57b3d8	-0.21064699
164	0x3e8e0f9d	0.27746287
165	0x3e07a990	0.13248277
166	0x3e5a597a	0.21323195
167	0x3e2bbe73	0.1677187
168	0xbe5a1c72	-0.21299914
169	0x3e4963f0	0.1966703
170	0xbe8ad620	-0.2711649
171	0xbe32bc41	-0.17454626
172	0x3e486e06	0.1957322
173	0xbeb753c2	-0.3580609
174	0xbeb4a29d	-0.35280314
175	0xbe14b542	-0.1452227
176	0x3e484d0a	0.19560638
177	0x3eaa776a	0.3329423
178	0x3eb1ac19	0.34701613
179	0x3ddf965e	0.10917352
180	0x3e3a80f1	0.1821325
181	0x3d93b54b	0.07212313
182	0x3dbbda0b	0.09172448
183	0x3e37e9bb	0.17960255
184	0x3e9d666c	0.30742204
185	0x3eb79015	0.35852113
186	0xbea3e903	-0.3201371
187	0xbe4f8a8c	-0.20267695
188	0x3e5a91fa	0.21344748
189	0x3e3f044d	0.18653984
190	0xbe905d71	-0.2819629
191	0x3e7b6f6c	0.24554223
192	0x3e35f68e	0.17769834
193	0xbe86125c	-0.26185882
194	0xbea4c040	-0.32177925
195	0xbe4d8a88	-0.20072377
196	0xbe1ecd84	-0.15508085
197	0xbe8eecc1	-0.27915004
198	0xbe234ef5	-0.15948088
199	0xbe8eaa1c	-0.27864158
200	0xbe8a7921	-0.2704554
201	0xbe7c584f	-0.24643062
202	0x3e78aa36	0.2428368
203	0xbe328419	-0.17433204
204	0x3e2e03c7	0.16993628
205	0xbe3a810c	-0.1821329
206	0x3e9fd850	0.3121972
207	0x3eb4002c	0.3515638
208	0xbded82c8	-0.1159721
209	0xbea36c11	-0.31918386
210	0xbe690315	-0.22755082
211	0x3d5a84e3	0.053349387
212	0x3e6c3858	0.23068368
213	0x3dd2cf12	0.10293402
214	0xbe751453	-0.23933534
215	0x3e56dc82	0.20982555
216	0xbe9fa78c	-0.31182516
217	0xbe93c80c	-0.2886356
218	0x3eb1f5c0	0.34757805
219	0x3e78a3da	0.24281254
220	0x3e1b3915	0.15158494
221	0xbea9c37a	-0.3315695
222	0x3eb75b0d	0.35811654
223	0x3e5ae643	0.213769
224	0x3e670695	0.22561105
225	0xbe765b9e	-0.24058387
226	0xbdb13a44	-0.086536914
227	0x3eaf6de7	0.34263536
228	0x3e23b79a	0.15988007
229	0xbea02cfe	-0.31284326
230	0xbe9cd6e7	-0.30632707
231	0xbe4d5d2f	-0.20055078
232	0xbeb6a9c9	-0.3567641
233	0xbe70c51f	-0.23512696
234	0xbea4418f	-0.32081267
235	0xbe80df9a	-0.25170594
236	0xbeb43594	-0.35197127
237	0xbe698782	-0.22805598
238	0x3e70f5f3	0.23531322
239	0xbe9e09f5	-0.30866972
240	0xbe51cbc0	-0.2048788
241	0xbe99ad15	-0.30014864
242	0xbec0be2d	-0.37645093
243	0x3ec248bd	0.3794612
244	0xbe65b1a7	-0.2243105
245	0x3ea2c230	0.31788778
246	0x3ebf7aec	0.3739847
247	0x3d64fb21	0.055903558
248	0xbe6b62f9	-0.22986974
249	0x3e857766	0.26067656
250	0xbe925d07	-0.285866
251	0x3ea40ccf	0.32041022
252	0xbe453ea8	-0.19262183
253	0xbec03233	-0.375383
254	0xbe80d1d6	-0.25160092
255	0xbe795753	-0.24349718

layer1.bias f4 [64]
0	0x3de386a8	0.11109668
1	0xbe4ca319	-0.19984092
2	0x3e3efe02	0.18651584
3	0xbdb51c8c	-0.088433355
4	0x3c401988	0.011724837
5	0x3e234f76	0.1594828
6	0x3e82cfc6	0.25549144
7	0x3d95463d	0.072887875
8	0xbd68e571	-0.056859437
9	0xbd28e28a	-0.04123167
10	0x3e00e9e7	0.12589227
11	0x3dfb3803	0.12266543
12	0x3e961ad9	0.29317358
13	0xbd70d76f	-0.058799203
14	0xbd3499e8	-0.04409209
15	0x3df8fab3	0.12157192
16	0xbd9cc63c	-0.07654998
17	0x3d67f819	0.05663309
18	0x3d0958b1	0.03353185
19	0x3e075df4	0.13219434
20	0x3e217d59	0.15770473
21	0x3e97f125	0.29676166
22	0x3ea09a74	0.31367838
23	0x3d3d4679	0.046209786
24	0x3e7def4d	0.24798317
25	0x3eb3b80f	0.35101363
26	0xbc82c584	-0.015963323
27	0x3e21f611	0.15816523
28	0x3e66429b	0.22486345
29	0x3ce67397	0.02813129
30	0x3ea01df1	0.31272843
31	0x3e5557ee	0.20834324
32	0x3ec3612f	0.38160083
33	0x3d87b0e7	0.06625538
34	0x3e728737	0.23684393
35	0x3e0c5f08	0.13708127
36	0x3e375b1e	0.17905852
37	0x3e02bde3	0.12767749
38	0xbd4c3786	-0.04985764
39	0x3e3074bf	0.17232035
40	0x3e6b1693	0.2295783
41	0x3eb10ae5	0.34578624
42	0x3e5a87af	0.21340822
43	0xbd8db3cc	-0.06919059
44	0xbd53bd90	-0.051694453
45	0x3e00242e	0.12513801
46	0x3d0b8066	0.034057997
47	0x3d398eef	0.045302328
48	0x3e6959f8	0.22788227
49	0x3e4103be	0.18849084
50	0x3e77d297	0.24201427
51	0x3e3b4ba7	0.18290578
52	0x3e1dbf60	0.15405035
53	0xbd770eba	-0.06031678
54	0xbdcbd274	-0.0995225
55	0x3e0b57d8	0.13607728
56	0x3eb7aa9c	0.35872352
57	0xbd468beb	-0.04847328
58	0x3d1ba325	0.037997384
59	0x3c48f06c	0.012264352
60	0x3e1f0fea	0.15533414
61	0x3e19d2db	0.15021841
62	0xbd07dca2	-0.033169396
63	0xbc1c51a7	-0.009540952

layer2.weight f4 [32, 64]
0	0xbd9023e7	-0.07038098
1	0xbd8749c0	-0.066058636
2	0x3d8881ed	0.066654064
3	0xbe1d16b7	-0.15340696
4	0xbdc3629c	-0.095402926
5	0x3d47187a	0.048607327
6	0xbdc82658	-0.097729385
7	0x3da26b23	0.07930591
8	0x3caa866b	0.020816049
9	0xbdeb8212	-0.11499418
10	0xbd762052	-0.060089417
11	0xbbf943ad	-0.0076069445
12	0xbe0f79b4	-0.1401127
13	0x3d903f97	0.07043379
14	0xbd4ba3bf	-0.049716707
15	0x3daf1184	0.08548263
16	0xbda018d0	-0.078172326
17	0xbc625273	-0.013813603
18	0xbdd56850	-0.10420287
19	0xbdf4cb51	-0.11952842
20	0x3db434d1	0.087991364
21	0x3da074e5	0.07834796
22	0xbce31475	-0.027719716
23	0x3dc22427	0.09479552
24	0xbdfa86e6	-0.12232761
25	0x3cf05b5d	0.02934044
26	0x3d347b8a	0.04406313
27	0x3d9929ff	0.07478713
28	0xbcdc98de	-0.026928362
29	0x3c30a044	0.010780398
30	0x3d956049	0.072937556
31	0x3d9cf636	0.076641485
32	0xbdf02ac9	-0.117269106
33	0x3d6a00cf	0.057129677
34	0xbe03509b	-0.12823717
35	0xbcf2289c	-0.02956038
36	0xbcf6263e	-0.030047532
37	0x3da70396	0.08154981
38	0xbce5573e	-0.027995702
39	0xbdd19535	-0.10233537
40	0x3db795c4	0.089641124
41	0x3c245b4d	0.010031533
42	0x3bb34895	0.005471299
43	0x3d8d0e47	0.06887489
44	0x3d844ed8	0.06460351
45	0xbe1390e2	-0.14410737
46	0x3b8aba35	0.0042336234
47	0x3c2df31d	0.010617045
48	0x3d00c622	0.031438954
49	0x3d605d20	0.05477631
50	0xbe1793da	-0.14802495
51	0x3d925cbf	0.07146596
52	0xbdd1cc36	-0.10244028
53	0xbdb4ca8c	-0.08827695
54	0xbdf5fc3d	-0.12011001
55	0xbd0a1067	-0.03370705
56	0xbd011185	-0.03151085
57	0x3d9d9c55	0.076958336
58	0xbd147f1b	-0.03625403
59	0xbd914348	-0.07092911
60	0xbc7323b5	-0.014840056
61	0xbe074935	-0.1321152
62	0xbd1abb10	-0.037776053
63	0x3d0ca39a	0.03433571
64	0x3d091479	0.03346679
65	0x3d4799e9	0.048730765
66	0xbda5a121	-0.080873735
67	0xbc2e518d	-0.01063956
68	0xbe215119	-0.15753593
69	0xbdb24755	-0.08705012
70	0x3d9a0480	0.075203896
71	0x3d469fce	0.048492245
72	0x3cd311b6	0.025765281
73	0x3cc302bf	0.02380502
74	0xbda88a70	-0.0822953
75	0xbc3cfe0b	-0.011535178
76	0x3d039577	0.032124963
77	0x3c8701e3	0.016480392
78	0xbe009451	-0.12556578
79	0xbcd95586	-0.026530039
80	0x3d848016	0.06469743
81	0xbcce37b0	-0.025173038
82	0xbdd03bfd	-0.10167692
83	0xbcaa7225	-0.020806381
84	0xbddc2de0	-0.107509375
85	0x3d597e40	0.053098917
86	0xbdbc10fe	-0.091829285
87	0xba9819db	-0.0011604385
88	0x3b45cf0d	0.0030183226
89	0x3d1903c4	0.037357107
90	0xbc0f0621	-0.008729489
91	0xbcdc3383	-0.026880031
92	0x3d43ba25	0.047784943
93	0xbe17bc8c	-0.14818019
94	0xbdb0f677	-0.086407594
95	0xbdc21e54	-0.09478441
96	0xbd872627	-0.06599074
97	0xbc03c039	-0.008041435
98	0xbe121001	-0.14263918
99	0x3d2cf075	0.042221505
100	0x3c5e10df	0.013553827
101	0x3d847b50	0.064688325
102	0xbe07fb7d	-0.13279529
103	0xbcb209b0	-0.021733135
104	0xbdccc548	-0.09998566
105	0x3c7352cf	0.014851286
106	0xbd4efc78	-0.05053374
107	0x3d0a11be	0.033708327
108	0xbddb3087	-0.10702615
109	0x3da2fb7a	0.079581216
110	0x3d35b460	0.044361472
111	0x3cbb40a2	0.022857968
112	0xbe0de407	-0.13856517
113	0x3cc66a42	0.02422059
114	0x3cef801a	0.029235888
115	0x3d67280b	0.056434672
116	0xbcb52ae4	-0.022115178
117	0xbde940ee	-0.113893375
118	0xbdbd4460	-0.09241557
119	0xbd60c3ad	-0.05487411
120	0xbd2080cc	-0.03918533
121	0x3cf2764e	0.029597428
122	0x3cc6722b	0.024224361
123	0xbd0dfebd	-0.034666765
124	0xbd20fde4	-0.03930463
125	0x3cc67d1a	0.024229575
126	0xbdb8fbd2	-0.09032406
127	0x3c9e2520	0.019304812
128	0x3dd6421b	0.10461827
129	0x3d6156d3	0.055014443
130	0x3d0cdced	0.03439038
131	0x3e09d72d	0.1346099
132	0x3e0e4acb	0.13895719
133	0x3e17a690	0.14809632
134	0x3e733213	0.2374957
135	0x3e232d47	0.1593524
136	0x3e35a3de	0.17738292
137	0x3cd0cd01	0.025488378
138	0x3dc25ef0	0.09490764
139	0x3e7e6fa8	0.24847281
140	0x3e0f2ad6	0.13981184
141	0x3e46c38c	0.19410533
142	0x3d9fefec	0.07809433
143	0x3dac9964	0.084276944
144	0x3e6200e2	0.2207065
145	0x3dfd9461	0.12381817
146	0x3e2d0cd9	0.16899432
147	0x3e4ca2e9	0.1998402
148	0x3de64a26	0.112446114
149	0x3de1b278	0.11020368
150	0x3dbef991	0.09324945
151	0x3dcfdded	0.10149751
152	0x3e18f8a9	0.14938606
153	0x3c110b07	0.008852727
154	0xbb9fa16a	-0.004871537
155	0x3e78de0e	0.24303457
156	0x3e1ba74b	0.15200536
157	0x3e35365b	0.17696516
158	0x3cf3e30d	0.029771352
159	0x3dd7dca8	0.10540134
160	0x3e2b6cfd	0.16740794
161	0x3e43ba2d	0.19113989
162	0x3d884d5d	0.06655381
163	0x3e4057d1	0.187835
164	0x3d95757f	0.07297801
165	0x3de6b62e	0.11265217
166	0x3d213188	0.039353877
167	0x3e5b2e6c	0.21404427
168	0x3e30d3da	0.17268315
169	0x3cfc9490	0.030832559
170	0x3ced122b	0.028939327
171	0x3e76c1f7	0.24097429
172	0x3cbb1d46	0.022841107
173	0x3e635471	0.2220018
174	0x3e10b47b	0.14131348
175	0x3d824a06	0.06361775
176	0x3d4deaa6	0.050272606
177	0x3e56d991	0.20981432
178	0x3e08c439	0.13356103
179	0x3dd0440c	0.10169229
180	0x3e15e14c	0.14636725
181	0x3c941519	0.018076466
182	0x3c2d89ec	0.010591965
183	0x3e34b54b	0.17647283
184	0x3c6be0d8	0.014396869
185	0x3e0aea7a	0.13566008
186	0x3e6a3d3e	0.22874925
187	0x3e00c54f	0.12575267
188	0x3e76b3b4	0.24091989
189	0x3da9bb86	0.082877204
190	0x3e485ecc	0.19567412
191	0x3d21f6eb	0.03954212
192	0x3dae88b9	0.085221715
193	0xbd8baaac	-0.068196625
194	0xbdff3a3d	-0.1246228
195	0x3d2e6897	0.042580213
196	0xbc964e41	-0.018347861
197	0x3dafe8bd	0.08589313
198	0xbdf9e442	-0.1220174
199	0xbdee6e24	-0.116421014
200	0xbd4f5b98	-0.05062446
201	0x3d4263a8	0.04745832
202	0x3d5c3d9d	0.053769697
203	0x3c5ae125	0.013359343
204	0x3d0597b3	0.032615375
205	0x3d7d86cf	0.06189614
206	0xbe02fff8	-0.12792957
207	0x3dc2e5d9	0.09516496
208	0x3cd065c1	0.025439145
209	0x3d6f504e	0.058426194
210	0xbdcf5eb8	-0.10125488
211	0xbd1a1092	-0.03761346
212	0xbd7a715a	-0.061143257
213	0xbdcb0211	-0.099125035
214	0xbd967076	-0.07345669
215	0x3db28b13	0.087179326
216	0xbdbebded	-0.09313569
217	0x3d9cee6e	0.07662664
218	0xbc9e891e	-0.019352492
219	0xbd85a287	-0.0652514
220	0x3d9d27c0	0.07673597
221	0xbe0eac95	-0.13933022
222	0x3d99e2cf	0.075139634
223	0xbd951e07	-0.07281118
224	0xbe0a20c3	-0.1348906
225	0x3d0b00c9	0.033936296
226	0x3d1355a7	0.035970356
227	0x39cb5c38	0.00038787886
228	0x3d8046c2	0.06263496
229	0x3d244867	0.04010811
230	0x3d6bc04a	0.057556428
231	0x3da52c9d	0.0806515
232	0xbdcb3d95	-0.09923855
233	0xbe15ddc4	-0.14635378
234	0x3d2a1136	0.04152032
235	0xbdd61791	-0.10453714
236	0xbe092834	-0.13394243
237	0x3dc8d44e	0.09806119
238	0xbd4b4f18	-0.049635977
239	0xbd3696c4	-0.044577375
240	0xbd454311	-0.048159663
241	0xbd45db1c	-0.048304662
242	0xbd45c912	-0.04828746
243	0xbdbf5388	-0.09342104
244	0xbda81f89	-0.0820914
245	0x3d1728b3	0.03690405
246	0xbd2ce801	-0.042213444
247	0xbbd2dc72	-0.0064349705
248	0xbdc7b7fd	-0.0975189
249	0x3dc35b19	0.0953886
250	0x3d7aad65	0.06120052
251	0x3c64a1a5	0.013954555
252	0xbd2bddc5	-0.041959543
253	0xbcf25dca	-0.029585738
254	0xbddff8f4	-0.10936156
255	0xbd219a63	-0.039453875

layer2.bias f4 [32]
0	0xbe133519	-0.14375724
1	0xbce13974	-0.027493216
2	0x3e02f16b	0.12787406
3	0xbe166204	-0.14685827
4	0x3ca325a0	0.019915402
5	0x3c92c2b0	0.0179151
6	0x3d266f3c	0.040633425
7	0x3c8ff861	0.017574491
8	0x3d8f7e7f	0.07006549
9	0x3e6851b1	0.22687413
10	0x3dac4955	0.084124245
11	0x3e598799	0.21243133
12	0x3d7a6cc7	0.061138894
13	0xbb8701cf	-0.0041200886
14	0x3d000007	0.031250026
15	0x3e1ceeb9	0.1532544
16	0x3d1668ea	0.036721148
17	0x3c110af3	0.008852708
18	0x3e10f21d	0.14154859
19	0xbdd657af	-0.10465943
20	0x3e4fd533	0.20296173
21	0x3e57aa34	0.21061021
22	0x3d8f785c	0.070053786
23	0x3e3a013c	0.18164533
24	0x3e4a76c4	0.19771868
25	0x3da68b28	0.08132011
26	0x3d964c79	0.07338805
27	0x3e4b649b	0.19862597
28	0x3e245cf0	0.16051078
29	0x3d6d13bd	0.057880152
30	0x3e5d6bb7	0.21623121
31	0xbdd2b974	-0.102892786

layer3.weight f4 [1, 32]
0	0xbce0de6e	-0.027449813
1	0xbd97841e	-0.07398246
2	0x3e94fda9	0.29099777
3	0xbddbc1e8	-0.10730344
4	0xbe186cf5	-0.14885314
5	0xbe112a2c	-0.14176244
6	0xbc09659e	-0.008386044
7	0x3e0c7af0	0.13718772
8	0x3e8b6f2f	0.27233264
9	0x3e805520	0.25064945
10	0x3e367320	0.17817354
11	0x3e84bd5a	0.25925714
12	0xbd45b9dc	-0.048272952
13	0xbe029a97	-0.12754284
14	0x3e6e5a04	0.23276526
15	0x3e6c9ea8	0.23107398
16	0x3e9bed90	0.30454683
17	0x3e6c36ba	0.23067752
18	0x3e66a7a5	0.22524889
19	0x3d09be04	0.03362848
20	0x3e279c89	0.16368307
21	0x3e23808a	0.15967003
22	0x3e897547	0.26847288
23	0x3e86902f	0.26281878
24	0x3e19f7d6	0.15035948
25	0xbdc95a2b	-0.09831651
26	0xbdd84807	-0.10560613
27	0x3e90b688	0.2826426
28	0x3e48b036	0.19598469
29	0xbd48a645	-0.048986692
30	0x3e3ab605	0.18233497
31	0xbac0ee98	-0.0014719544
